INTERRUPTED.pth (torch_old, 339918 bytes, 14 tensors)

lstm.weight_ih_l0 f4 [400, 1]
0.06250126 0.051241346 -0.03866855 -0.04456822 -0.09224659 0.026922889 -0.005495712 -0.097194456
-0.06164092 -0.008433484 0.0932473 0.026932485 0.04246629 0.08073134 -0.09564673 0.0927209
0.051266007 -0.0318802 -0.004925646 -0.09278952 0.09776712 -0.0357785 -0.08057667 -0.037382126
-0.019436434 0.07599845 0.08989639 0.0690889 0.07925654 0.013256893 -0.07898073 0.058384113
0.048427634 0.0047594905 -0.0095020905 0.09656941 0.08529285 -0.011366546 0.022529222 -0.063449904
-0.04614768 0.047162674 -0.020759962 0.04765629 -0.081334434 0.08789336 0.060968198 0.038565107
-0.07366452 -0.09047442 0.07989294 0.029773302 -0.034238495 0.07735098 0.06930483 -0.051861573
0.021559194 0.08085974 0.051096074 0.06254459 0.07571923 -0.029724456 -0.014253154 0.0024343878
0.08751831 -0.07565965 0.042960517 0.05405443 0.010493979 -0.0043931827 -0.036428615 0.088842906
0.04914943 -0.011804044 0.08627654 -0.04021884 0.05100543 -0.002977647 -0.05251148 0.06631348
-0.00064332783 -0.005454339 -0.060978986 -0.0067002326 0.061706074 0.093790404 0.088678755 -0.063880205
-0.037271574 -0.086749256 -0.076392256 0.07692648 -0.093174934 0.06577925 0.088228785 0.07798014
0.055276506 -0.000740923 -0.04599881 0.051413007 0.013629511 0.004452504 0.06068314 -0.039276194
-0.047077514 -0.004848741 -0.0026605278 -0.092978075 -0.09709332 0.0039244294 -0.066106185 0.03264109
0.045987494 0.042779453 -0.02097287 -0.093707636 -0.06580434 -0.029287122 0.09503677 0.010530427
-0.05728811 -0.02422963 0.08749101 -0.03196843 -0.02164191 -0.06830567 -0.03086643 0.024493575
0.020042703 0.0971377 -0.00535582 -0.07106546 -0.09326418 0.040653832 -0.09464381 0.022683822
0.07514202 0.09625039 0.0023370534 -0.058195483 -0.08631072 -0.06260696 0.035905696 0.0009193048
0.068613924 -0.09155144 0.04620681 0.08838134 -0.05781139 -0.08728826 0.091597386 -0.09419087
0.095459454 0.010644577 0.030942284 -0.04959134 0.058408476 -0.019448161 -0.09793601 0.017300926
0.025027521 -0.027685776 -0.055989444 -0.013538539 -0.053691305 -0.03288982 -0.010421455 -0.09702994
-0.024279535 0.050147004 0.020510174 0.096748866 -0.045197573 -0.022479676 -0.02783098 0.017476693
0.05738906 0.080444895 0.01995901 -0.009457052 0.046399392 0.03128893 0.05868847 0.087866776
0.06914414 -0.021196209 0.04664538 -0.022968434 -0.0268137 0.084199525 0.016464949 0.040284954
-0.064333476 0.04410953 0.093878485 0.058406092 -0.09498401 0.09681266 0.064097784 0.04243756
0.012444481 -0.05029447 -0.048948374 0.088084094 0.09482301 0.043598242 0.025717013 -0.01521448
-0.08092199 -0.09430001 0.050783508 0.071035646 0.036061533 0.06108647 -0.09370351 -0.07642243
-0.0076881796 -0.04804511 0.09692473 0.027599119 0.023771986 -0.0018360764 -0.054697644 0.03834247
0.0325894 -0.049957335 0.017336689 0.03444942 -0.062281217 -0.07685783 0.050707765 -0.042869437
0.06750078 0.058666207 -0.085111104 -0.036961593 -0.04858121 -0.05147971 0.04947663 0.0566578
0.066781126 0.01675415 -0.03319764 0.060742937 0.030381642 0.03827598 0.018345676 0.009978689
0.03880825 -0.007773973 0.039288916 -0.057825852 -0.08296931 0.09740796 0.05248233 0.036422156
00000000: a900 803d 72e2 513d ea62 1ebd 2a8d 36bd
00000010: c8eb bcbd 648d dc3c 6015 b4bb e30d c7bd
00000020: 307b 7cbd 982c 0abc 71f8 be3d 84a1 dc3c
00000030: 22f1 2d3d 7956 a53d 6fe2 c3bd 75e4 bd3d
00000040: 4efc 513d d094 02bd 5067 a1bb 6f08 bebd
00000050: 213a c83d 7a8c 12bd 6205 a5bd 001e 19bd
00000060: 2839 9fbc 13a5 9b3d 991b b83d 7b7e 8d3d
00000070: 4151 a23d 7033 593c a6c0 a1bd 2e24 6f3d
00000080: 0e5c 463d 80f5 9b3b a8ae 1bbc 2fc6 c53d
00000090: 05ae ae3d c03a 3abc 348f b83c 06f2 81bd
000000a0: 5a05 3dbd a62d 413d cc10 aabc 3e33 433d
000000b0: ab92 a6bd 6f01 b43d cab9 793d 72f6 1d3d
000000c0: 6ddd 96bd a74a b9bd e99e a33d 24e7 f33c
000000d0: aa3d 0cbd 316a 9e3d b1ef 8d3d cd6c 54bd
000000e0: e89c b03c cb99 a53d 1e4a 513d 6117 803d
000000f0: af12 9b3d b480 f3bc 1086 69bc 408a 1f3b
00000100: cd3c b33d 72f3 9abd 5ef7 2f3d 2e68 5d3d
00000110: f0ee 2b3c b0f4 8fbb 2c36 15bd 45f3 b53d
00000120: ea50 493d c065 41bc c1b1 b03d 83bc 24bd
00000130: 12eb 503d a024 43bb 4716 57bd 5dcf 873d
00000140: 00a5 28ba 50ba b2bb 1ac5 79bd a08d dbbb
00000150: 82bf 7c3d 2f15 c03d 359d b53d a0d3 82bd
00000160: 14aa 18bd 98a9 b1bd 8b73 9cbd a18b 9d3d
00000170: 80d2 bebd 45b7 863d 4bb1 b43d 0db4 9f3d
00000180: 9e69 623d 803a 42ba 4069 3cbd 7296 523d
00000190: 504e 5f3c 50e6 913b e28e 783d 13e0 20bd
000001a0: 5ad4 40bd 30e2 9ebb 405c 2ebb 4a6b bebd
000001b0: ddd8 c6bd 8098 803b ae62 87bd aab2 053d
000001c0: 625d 3c3d 8239 2f3d 4ccf abbc cae9 bfbd
000001d0: 6dc4 86bd 8ceb efbc a3a2 c23d d087 2c3c
000001e0: f0a6 6abd 387d c6bc 7d2e b33d 54f1 02bd
000001f0: 604a b1bc d8e3 8bbd 98db fcbc c0a6 c83c
00000200: 9830 a43c 21f0 c63d e07f afbb c58a 91bd
00000210: 4a01 bfbd a284 263d 9dd4 c1bd 6cd3 b93c
00000220: 0fe4 993d ed1e c53d 4029 193b 635e 6ebd
00000230: adc3 b0bd 1438 80bd da11 133d 80fd 703a
00000240: 7585 8c3d 527f bbbd 5a43 3d3d 4701 b53d
00000250: a3cb 6cbd 30c4 b2bd 6997 bb3d 25e7 c0bd
00000260: 3f80 c33d 9866 2e3c ac7a fd3c 4a20 4bbd
00000270: ba3d 6f3d c051 9fbc ad92 c8bd acba 8d3c
00000280: 8406 cd3c 48cd e2bc 3055 65bd c0d0 5dbc
00000290: 6aeb 5bbd 7ab7 06bd c0be 2abc a2b7 c6bd
000002a0: e0e5 c6bc f266 4d3d f404 a83c 4524 c63d
000002b0: 1721 39bd 4c27 b8bc ccfd e3bc 482b 8f3c
000002c0: ca10 6b3d 4bc0 a43d 1481 a33c c0f1 1abc
000002d0: 4a0d 3e3d d228 003d 5263 703d 7ff3 b33d
000002e0: 719b 8d3d aca3 adbc 3a0f 3f3d 4c28 bcbc
000002f0: 68a8 dbbc cd70 ac3d 80e1 863c d601 253d
00000300: 45c1 83bd 32ac 343d 5d43 c03d 3a3b 6f3d
00000310: fa86 c2bd b745 c63d b345 833d 02d3 2d3d
00000320: f0e3 4b3c 9301 4ebd 177e 48bd 6f65 b43d
00000330: 9132 c23d 1294 323d 7cac d23c 2846 79bc
00000340: 6eba a5bd 5d20 c1bd 5e02 503d 237b 913d
00000350: 42b5 133d ce35 7a3d a0e7 bfbd 5d83 9cbd
00000360: 20ed fbbb f3ca 44bd 7980 c63d 8c17 e23c
00000370: 78bd c23c 80a8 f0ba a30a 60bd fe0c 1d3d
00000380: 767c 053d 10a0 4cbd ac05 8e3c d61a 0d3d
00000390: 971a 7fbd a367 9dbd f2b2 4f3d dd97 2fbd
000003a0: d93d 8a3d fa4b 703d bb4e aebd 0a65 17bd
000003b0: 17fd 46bd 63dc 52bd 02a8 4a3d 0212 683d
000003c0: 8bc4 883d 0040 893c 40fa 07bd 96cd 783d
000003d0: ece2 f83c 46c7 1c3d ac49 963c a87d 233c
000003e0: 66f5 1e3d d0bc febb 6aed 203d cdda 6cbd
000003f0: d0eb a9bd d37d c73d b6f7 563d 662f 153d

lstm.weight_hh_l0 f4 [400, 100]
0.0662215 0.017635107 -0.09752071 0.08829314 0.060511462 -0.058056604 0.05707892 -0.08401011
0.028442018 0.07899811 -0.044426 -0.020927563 -0.08807875 -0.06089542 0.009362027 0.03975273
0.055474006 0.022481538 0.028498508 0.019382179 0.063940756 -0.06772119 -0.07053588 0.08108782
0.019829907 -0.019953944 -0.039272595 0.06261959 0.07170183 0.09414277 -0.06680888 -0.03602974
0.036543272 0.015202925 -0.004888788 -0.09782975 -0.030193232 -0.07033303 0.05910843 -0.08516212
-0.07594629 -0.03560619 -0.0699505 -0.06658539 0.0037934557 0.07486356 0.05554133 0.06855298
0.049634464 0.09912523 -0.041581716 0.070905276 -0.092764 -0.017251052 -0.065060094 0.09910392
0.07095904 -0.034998022 -0.023559906 -0.09865587 0.03395217 -0.013476729 -0.0055042505 0.086351715
-0.077179335 0.057049744 0.09207546 -0.053727306 -0.037797786 -0.0742149 -0.07100928 0.04925091
0.018896595 -0.0993197 0.07536223 0.006312765 0.0612944 -0.08074832 0.025139086 -0.022138849
0.09733676 -0.095720686 0.026355393 -0.07189943 -0.013959967 -0.09612224 -0.03201153 -0.081630155
-0.024565004 -0.06574398 0.08193419 -0.088365905 -0.016293392 0.066596694 0.050026648 -0.04173055
0.0699471 0.025841884 0.06316201 0.037703775 -0.019914627 -0.081824064 -0.03884685 0.060218073
0.08721162 -0.036024913 0.0022218376 -0.049302783 -0.008573607 -0.022261702 0.055332266 0.075298764
0.095573746 -0.053578544 0.037331603 0.07595948 -0.059290744 0.09216834 0.040723883 -0.033534124
0.016331173 0.08162489 0.012583241 0.0344337 0.014230683 -0.035891175 0.0076641664 0.09230139
0.07849183 -0.07847092 -0.066390395 0.06651641 0.052353494 0.0009077415 -0.06335072 -0.051225137
-0.09330161 0.046208926 -0.047631014 0.057014592 -0.09836332 0.03679926 0.04718163 0.006742701
2.6978552e-05 0.06919766 -0.0656713 -0.07864674 -0.037292264 0.038535915 -0.0009306818 0.020688131
0.08467599 0.046948127 0.04917098 0.03289909 -0.025067724 -0.09552979 -0.07599537 0.036583923
-0.002479732 0.021123268 0.098394595 0.078792356 -0.04907322 -0.08118907 0.026184522 -0.09299079
-0.04316659 -0.038104247 0.08439038 0.025573738 -0.035534225 0.080472685 -0.069609955 -0.07557267
-0.099789195 -0.041953947 -0.0342554 0.038432382 -0.06634161 0.06950762 0.056047313 0.011384532
-0.026651248 0.052336685 -0.090577126 0.018170416 0.06685882 -0.0069302693 -0.026942074 -0.029052734
0.012266263 0.07419465 0.029368334 -0.09503646 -0.011902913 -0.06659988 -0.05554669 -0.011332497
-0.041194487 0.07200719 0.09190846 -0.03700997 -0.016973354 -0.046270072 0.03333334 -0.057408024
0.037681438 0.03887651 -0.022775516 -0.095564984 0.061062507 -0.049989272 0.047965594 -0.044869136
0.09562237 -0.016462266 -0.045692455 -0.081033036 -0.05904894 0.09567178 0.06469228 -0.06995752
-0.005406484 0.04350262 0.05975052 0.05644036 -0.03454431 -0.07668269 -0.053905975 -0.0024988279
0.047571994 -0.032296695 -0.023268439 -0.07513164 -0.052931607 0.047010697 0.008762978 -0.031243667
-0.002809465 -0.058389343 -0.07497344 0.06124162 -0.02250117 0.008628048 0.012525439 -0.069006994
-0.035013177 0.09758354 0.09841157 0.06236554 0.048714347 -0.07956854 -0.08576586 0.05066637
00000000: 239f 873d 8077 903c f0b8 c7bd 09d3 b43d
00000010: deda 773d c3cc 6dbd 96cb 693d 7e0d acbd
00000020: 3cff e83c c3c9 a13d 0af8 35bd 4870 abbc
00000030: a262 b4bd 7a6d 79bd 3063 193c c2d3 223d
00000040: b638 633d 342b b83c b475 e93c 60c7 9e3c
00000050: 5ff3 823d 68b1 8abd 1e75 90bd 5f11 a63d
00000060: 5472 a23c 7476 a3bc 4ddc 20bd b33e 803d
00000070: 69d8 923d edcd c03d 18d3 88bd ec93 13bd
00000080: 66ae 153d b015 793c 2032 a0bb f75a c8bd
00000090: cc57 f7bc c30a 90bd ae1b 723d 7a69 aebd
000000a0: ba89 9bbd ccd7 11bd 3542 8fbd ec5d 88bd
000000b0: a09b 783b 1152 993d 4e7f 633d 8165 8c3d
000000c0: 824d 4b3d 2b02 cb3d 9751 2abd c936 913d
000000d0: 0dfb bdbd 1452 8dbc 3a3e 85bd fff6 ca3d
000000e0: f952 913d 165a 0fbd b400 c1bc 170c cabd
000000f0: 6e11 0b3d 80cd 5cbc 005d b4bb 2bd9 b03d
00000100: 3310 9ebd feac 693d 0f92 bc3d 2a11 5cbd
00000110: dad1 1abd fbfd 97bd 506d 91bd 52bb 493d
00000120: 08cd 9a3c 2068 cbbd 8357 9a3d 50db ce3b
00000130: d60f 7b3d 605f a5bd 7cf0 cd3c 885c b5bc
00000140: 7f58 c73d 3509 c4bd 44e7 d73c 0240 93bd
00000150: 58b8 64bc bddb c4bd 861e 03bd b62d a7bd
00000160: 8c3c c9bc c8a4 86bd 1dcd a73d 2ff9 b4bd
00000170: b879 85bc d963 883d bee8 4c3d a7ed 2abd
00000180: 6d40 8f3d 5cb2 d33c 155b 813d 466f 1a3d
00000190: 0024 a3bc 6093 a7bd e01d 1fbd 3aa7 763d
000001a0: 019c b23d dc8e 13bd 409c 113b b7f1 49bd
000001b0: 5078 0cbc 2c5e b6bc 16a4 623d 3d36 9a3d
000001c0: 2bbc c33d 2d75 5bbd 06e9 183d a590 9b3d
000001d0: dada 72bd c1c2 bc3d 16ce 263d 145b 09bd
000001e0: f4c8 853c f32a a73d f029 4e3c 5a0a 0d3d
000001f0: d027 693c a002 13bd b023 fb3b 8308 bd3d
00000200: 53c0 a03d 5db5 a0bd b0f7 87bd c139 883d
00000210: 9e70 563d 80f5 6d3a 06be 81bd 73d1 51bd
00000220: ea14 bfbd 9245 3d3d bd18 43bd 2288 693d
00000230: b572 c9bd d2ba 163d 8641 413d e0f1 dc3b
00000240: 0050 e237 81b7 8d3d ad7e 86bd 8b11 a1bd
00000250: c6bf 18bd d6d7 1d3d 00f9 73ba 287a a93c
00000260: 9b6a ad3d ae4c 403d 8267 493d 32c1 063d
00000270: d45a cdbc 1fa5 c3bd 76a3 9bbd 06d9 153d
00000280: 0083 22bb b40a ad3c 1b83 c93d e35d a13d
00000290: 0001 49bd 7546 a6bd ec80 d63c f571 bebd
000002a0: 73cf 30bd 3313 1cbd ddd4 ac3d 0480 d13c
000002b0: 568c 11bd ddce a43d aa8f 8ebd d8c5 9abd
000002c0: 475e ccbd e7d7 2bbd 644f 0cbd 466b 1d3d
000002d0: 1cde 87bd 035a 8e3d de91 653d 3086 3a3c
000002e0: b853 dabc fe5e 563d 8080 b9bd 20da 943c
000002f0: 47ed 883d 5017 e3bb a0b5 dcbc 0000 eebc
00000300: 70f8 483c 5df3 973d dc95 f03c 7aa2 c2bd
00000310: 7004 43bc 8565 88bd ed84 63bd f0ab 39bc
00000320: 8dbb 28bd 8178 933d 813a bc3d c497 17bd
00000330: b40b 8bbc b085 3dbd 8a88 083d ad24 6bbd
00000340: da57 1a3d fa3c 1f3d b893 babc 93b7 c3bd
00000350: ae1c 7a3d 8dc1 4cbd 9277 443d b3c8 37bd
00000360: a9d5 c33d e0db 86bc 0328 3bbd a6f4 a5bd
00000370: 4ddd 71bd 91ef c33d 637d 843d e345 8fbd
00000380: e028 b1bb ce2f 323d f6bc 743d 022e 673d
00000390: 567e 0dbd d00b 9dbd 83cc 5cbd 60c3 23bb
000003a0: dada 423d 8a49 04bd 749d bebc 9ede 99bd
000003b0: d0ce 58bd 4a8e 403d 9892 0f3c b8f2 ffbc
000003c0: 001f 38bb aa29 6fbd ad8b 99bd 7ed8 7a3d
000003d0: 6054 b8bc a85c 0d3c 8037 4d3c 8a53 8dbd
000003e0: fa69 0fbd e1d9 c73d 018c c93d 0273 7f3d
000003f0: b288 473d d5f4 a2bd 03a6 afbd 8a87 4f3d

lstm.bias_ih_l0 f4 [400]
-0.09855056 0.0105225 -0.05875218 0.007567443 0.004087828 0.040931024 0.048310123 0.015854284
0.08373902 -0.097395144 -0.07837538 -0.041909397 -0.009625927 0.014921762 0.053041987 0.018991992
0.019038297 -0.06678134 0.06552667 -0.070885815 -0.026017368 0.025150143 0.040210493 -0.0037384406
-0.012891069 0.023816489 -0.049193155 -0.042756297 0.033953317 0.006812528 0.09465916 -0.02164533
-0.08878648 0.018164143 -0.062473584 0.090686895 0.019691251 0.061479457 -0.09981604 -0.057553124
-0.07416552 -0.06317568 -0.06398548 0.08585865 -0.01662121 0.01814431 -0.06895558 0.012929514
-0.059746873 0.063561074 0.057522006 0.04128594 0.03545993 -0.05778278 -0.05795748 -0.095683895
-0.08972061 0.08987304 0.039454587 -0.060757127 0.0076533705 0.09860463 -0.003995642 0.039336614
-0.019721352 0.08986295 -0.017839275 0.011608228 -0.052833784 0.04326094 -0.04541744 0.03790403
-0.06288568 -0.012228452 -0.06596452 -0.04180981 -0.02076827 0.039190404 -0.092996314 0.08369272
0.055493496 -0.07177941 -0.019805692 -0.021962263 0.099162884 0.09535419 -0.007969692 0.09874188
-0.061202396 -0.08872943 -0.07481307 -0.05253258 -0.08226849 0.016024098 -0.08975249 0.027848907
-0.08867784 0.034860812 -0.09705893 -0.03670831 -0.031059042 -0.015310362 -0.035862647 -0.034001328
-0.025625527 -0.014946952 -0.018399216 0.0839429 -0.051128756 0.021266028 0.070082314 -0.06569312
0.0022777095 0.06798155 -0.09110848 0.0859803 0.07241962 0.014919639 0.09176012 -0.06664421
-0.09035223 0.09585846 -0.05201093 0.053899862 -0.0065538287 -0.09354881 0.04348726 -0.0072334856
0.059254177 -0.09254364 0.016811892 -0.078720234 0.06448772 -0.055781808 -0.010756336 0.045208134
0.036177896 -0.0094509125 0.031606518 0.085940994 0.07825979 -8.98391e-05 0.016461529 -0.03504262
0.060950436 -0.01950606 0.09318095 -0.05974883 -0.06295989 -0.08894258 -0.086706534 0.04048731
0.09879232 -0.08552941 0.026005559 0.09605504 0.040748663 0.029865377 -0.078374684 -0.007415794
0.0049025193 0.043774642 -0.043443013 0.09430409 0.09283026 -0.071544185 -0.020905532 0.0011841804
-0.03536971 -0.083511755 0.09823666 -0.027153753 -0.027969502 -0.06460294 0.039328016 -0.015335679
-0.0868065 -0.03150942 0.028426118 -0.061872315 -0.053371787 -0.014799133 -0.025957718 0.021989062
0.030142225 -0.0041256174 -0.055352867 -0.09429365 0.0173795 -0.018819474 -0.06933659 -0.058571886
0.052523263 -0.026253149 -0.050972786 -0.056423843 0.09287622 -0.058494605 -0.08888892 0.07054628
0.08084846 0.06378753 0.0717463 -0.08324907 -0.030384496 -0.067425594 0.023031458 -0.011807047
-0.07714655 -0.078733146 0.09236256 0.051600985 -0.028724492 -0.07116374 0.068001725 -0.0022122264
0.087133594 -0.07116846 0.009380057 -0.068835475 -0.09791409 0.052093543 0.09363327 -0.0010786057
0.09724408 -0.041425824 0.05534505 0.05943837 0.08798178 0.06628621 -0.014913343 0.07822711
0.045247085 -0.0781701 -0.017819248 -0.021437347 -0.04260992 0.07468959 0.046302028 -0.077761985
0.07882147 0.05577623 -0.08800878 0.07646289 0.015819535 0.035282396 0.053000458 -0.04720099
-0.09045626 0.021117076 0.08729503 0.07434053 0.06273445 0.051649816 -0.00031657517 0.0053973943
00000000: e0d4 c9bd 9066 2c3c 20a6 70bd 50f8 f73b
00000010: 30f3 853b 4aa7 273d d6e0 453d d8e0 813c
00000020: 5d7f ab3d 1b77 c7bd 4583 a0bd 30a9 2bbd
00000030: 10b6 1dbc 687a 743c 8e42 593d 1895 9b3c
00000040: 34f6 9b3c a8c4 88bd d932 863d 952c 91bd
00000050: 6022 d5bc ac07 ce3c c2b3 243d a000 75bb
00000060: 1035 53bc cc1a c33c c37e 49bd 3a21 2fbd
00000070: a212 0b3d a03b df3b a9dc c13d 8c51 b1bc
00000080: b0d5 b5bd f8cc 943c 4de4 7fbd 0dba b93d
00000090: 8c4f a13c e2d1 7b3d 5a6c ccbd d3bc 6bbd
000000a0: 18e4 97bd 4062 81bd d20a 83bd a9d6 af3d
000000b0: 3429 88bc 60a3 943c 9538 8dbd 50d6 533c
000000c0: 23b9 74bd 4f2c 823d 329c 6b3d 721b 293d
000000d0: 6e3e 113d a3ad 6cbd d364 6dbd ebf5 c3bd
000000e0: 70bf b7bd 5b0f b83d 229b 213d 77dc 78bd
000000f0: 20c9 fa3b 39f1 c93d e0ed 82bb 6e1f 213d
00000100: ac8e a1bc 110a b83d ac23 92bc 7030 3e3c
00000110: 3d68 58bd 6232 313d a307 3abd 4241 1b3d
00000120: 35ca 80bd d859 48bc 6818 87bd c340 2bbd
00000130: 3822 aabc 1e86 203d da74 bebd 1767 ab3d
00000140: 264d 633d 1501 93bd 8c3f a2bc 34ea b3bc
00000150: e915 cb3d 0f49 c33d 5093 02bc 2f39 ca3d
00000160: 5daf 7abd c7b7 b5bd 9837 99bd 672c 57bd
00000170: 627c a8bd f844 833c 27d0 b7bd 6423 e43c
00000180: ba9c b5bd 36ca 0e3d d5c6 c6bd 745b 16bd
00000190: 886f febc 50d8 7abc b6e4 12bd fa44 0bbd
000001a0: a0ec d1bc 10e4 74bc f4b9 96bc 41ea ab3d
000001b0: 636c 51bd 1836 ae3c 5187 8f3d 1d8a 86bd
000001c0: a045 153b e939 8b3d 1597 babd 7116 b03d
000001d0: bd50 943d 8071 743c bbec bb3d c27c 88bd
000001e0: 970a b9bd 7151 c43d 6a09 55bd 1ac6 5c3d
000001f0: 80c1 d6bb 8596 bfbd b21f 323d e006 edbb
00000200: 82b4 723d 8587 bdbd 18b9 893c 1338 a1bd
00000210: 2312 843d 777b 64bd 583b 30bc 2a2c 393d
00000220: 462f 143d 00d8 1abc d675 013d d501 b03d
00000230: ab46 a03d 0068 bcb8 54da 863c da88 0fbd
00000240: 2aa7 793d 2ccb 9fbc a7d5 be3d 30bb 74bd
00000250: 1df1 80bd 8727 b6bd 3293 b1bd 06d6 253d
00000260: a153 ca3d 0b2a afbd 9c09 d53c 81b8 c43d
00000270: 12e8 263d 3ca8 f43c e882 a0bd 3000 f3bb
00000280: 50a5 a03b 0a4d 333d 4df1 31bd 8122 c13d
00000290: cb1d be3d c285 92bd 1442 abbc 8036 9b3a
000002a0: d4df 10bd 3608 abbd 4d30 c93d 8c71 debc
000002b0: 4c20 e5bc 8c4e 84bd 6a16 213d 8042 7bbc
000002c0: 9bc7 b1bd 0610 01bd e4dd e83c d36d 7dbd
000002d0: 609c 5abd 1078 72bc 48a5 d4bc 6822 b43c
000002e0: d4ec f63c 3030 87bb b0b9 62bd 071d c1bd
000002f0: 745f 8e3c 4c2b 9abc 5800 8ebd 13e9 6fbd
00000300: a222 573d d810 d7bc d7c8 50bd b01c 67bd
00000310: e335 be3d 0a98 6fbd 650b b6bd 917a 903d
00000320: e193 a53d 09a3 823d b9ef 923d 7d7e aabd
00000330: e8e8 f8bc 6e16 8abd 78ac bc3c 5872 41bc
00000340: 03ff 9dbd d83e a1bd 9528 bd3d 8e5b 533d
00000350: a04f ebbc 4bbe 91bd 7d44 8b3d 00fb 10bb
00000360: 1973 b23d c5c0 91bd d0ae 193c 9df9 8cbd
00000370: 2f87 c8bd 0a60 553d cdc2 bf3d 0060 8dba
00000380: e727 c73d 20ae 29bd 7eb1 623d a675 733d
00000390: cb2f b43d 11c1 873d 1857 74bc 8935 a03d
000003a0: 0255 393d a517 a0bd acf9 91bc 609d afbc
000003b0: bd87 2ebd dbf6 983d 32a7 3d3d ad41 9fbd
000003c0: 276d a13d 9e75 643d f23d b4bd 9398 9c3d
000003d0: f897 813c 4684 103d 0217 593d d355 41bd
000003e0: 2241 b9bd b8fd ac3c bdc7 b23d d93f 983d
000003f0: eb7a 803d c28e 533d 00fa a5b9 a0dc b03b

lstm.bias_hh_l0 f4 [400]
0.008475997 0.009089112 -0.030766748 -0.017774723 -0.08350986 0.07312404 0.069047324 -0.010223314
0.075008 0.089546986 0.0797096 0.0998515 -0.07972413 -0.048799146 0.033249386 -0.06791368
0.005230084 0.07500883 0.08450513 -0.06076021 0.008115247 0.04103104 0.09785158 -0.071101055
0.0014064908 -0.006012857 0.019068971 0.03761389 0.08622443 -0.068001606 -0.040870547 -0.001363121
-0.013318203 -0.0061366335 0.065509446 -0.06934552 0.09296293 -0.018221878 -0.08576667 0.08281558
-0.06360255 -0.06603781 0.059581585 -0.039758693 -0.088737845 -0.0034856647 -0.020136058 -0.085442536
0.09666536 -0.005177811 0.0012098923 0.07361054 -0.0021131039 -0.029851183 -0.0012800843 0.0684045
0.09849434 -0.041639067 -0.0678017 0.047921784 0.07903937 0.050580613 -2.2567809e-05 0.01830957
0.060492285 -0.044104706 0.025389679 0.055647813 0.05678744 0.021325111 0.04632134 0.025170483
-0.011850402 0.0712542 0.08825076 -0.09969621 -0.07704129 -0.00035864115 -0.022610143 0.0061346292
-0.03439953 0.04329925 -0.022048377 0.043500744 0.09605252 0.03403885 -0.016538009 -0.06212641
-0.07358138 -0.037161388 0.02473072 -0.024469458 -0.062949985 0.009036049 -0.0391273 0.064647086
0.094659396 -0.079940245 0.06682856 -0.053181518 0.0027161986 0.06265209 0.005515322 -0.0015154481
0.022723652 -0.04753629 -0.03223642 0.05107329 0.0073677525 0.097943045 -0.011660777 0.08056899
0.011369154 -0.017175213 0.014326431 0.07672597 -0.07865669 -0.030645251 0.084409274 0.06504055
-0.007789269 0.077342756 -0.029611982 0.07160551 -0.033959195 0.07980985 0.012210526 0.015447162
-0.03434603 -0.089026906 -0.07443793 0.030969538 0.039545603 0.04380948 0.084103815 0.017629668
0.030711494 -0.026455685 -0.008472517 -0.08749928 0.023288533 -0.039913047 -0.08175262 -0.007718444
-0.01128155 -0.03367565 0.09074416 -0.028960273 -0.002292931 -0.062551096 -0.042478193 -0.0068609715
0.04978194 -0.09745979 0.052362703 -0.0708554 -0.08012603 0.07557093 0.020949885 -0.02905681
-0.061909843 -0.028197944 0.0015216917 -0.0010580271 0.07072819 -0.028290525 0.029431932 0.06562445
0.07367583 -0.035368226 0.06359095 -0.0065329447 0.08816338 0.03692121 0.005963132 0.099423744
0.06819924 -0.013443992 -0.02184043 0.058320113 -0.06741029 -0.095556475 -0.03576448 -0.07283588
0.08775962 0.04144249 -0.04761336 0.04857079 0.034468003 -0.032466114 -0.09750774 -0.07458757
-0.09580461 0.0010219067 -0.046441983 -0.029986478 0.016062759 0.08665172 0.08869357 -0.07221864
-0.00862138 -0.02645465 0.06379748 0.038364805 0.0339578 -0.07647169 -0.056545127 0.019532606
0.014657676 0.018824138 -0.02057825 0.02787251 -0.05988579 0.007841706 -0.010269977 0.09514474
-0.0052214265 0.04183703 -0.07958702 0.010809995 0.0770062 -0.096167915 -0.059143998 0.029419608
0.021323875 0.094116695 -0.056468904 -0.02966483 0.036116116 -0.087086216 0.08138684 0.07710362
0.035475753 0.009569645 0.021633588 0.0016422644 0.020118043 -0.061999645 0.0638547 0.0006304532
0.09234988 -0.0234427 -0.015922442 0.075827785 -0.02016858 0.012888931 0.07491935 -0.06912538
-0.067935854 0.035946734 0.03213232 0.08711565 -0.00722079 -0.060943175 -0.0089983195 -0.013173327
00000000: e8de 0a3c 80ea 143c 8c0a fcbc 4c9c 91bc
00000010: 3807 abbd 0fc2 953d af68 8d3d b07f 27bc
00000020: cb9d 993d 6964 b73d c93e a33d f17e cc3d
00000030: 6846 a3bd 9de1 47bd 8230 083d 5416 8bbd
00000040: 2061 ab3b 3b9e 993d 0711 ad3d b3df 78bd
00000050: d0f5 043c 2a10 283d 6966 c83d 6e9d 91bd
00000060: 005a b83a 8007 c5bb 8836 9c3c 0611 1a3d
00000070: 6f96 b03d 6d44 8bbd e067 27bd c0aa b2ba
00000080: 9834 5abc d015 c9bb d129 863d 0605 8ebd
00000090: 5963 be3d 0c46 95bc 70a6 afbd 379b a93d
000000a0: 0e42 82bd d53e 87bd d20b 743d 03da 22bd
000000b0: 30bc b5bd c06f 64bb 60f4 a4bc 7ffc aebd
000000c0: 7df8 c53d a0aa a9bb 4095 9e3a 1fc1 963d
000000d0: 007c 0abb 788a f4bc 80c8 a7ba a917 8c3d
000000e0: 67b7 c93d ba8d 2abd 9edb 8abd a249 443d
000000f0: 65df a13d 9e2d 4f3d 0050 bdb7 f4fd 953c
00000100: c2c6 773d 23a7 34bd 04fe cf3c f6ee 633d
00000110: f299 683d 00b2 ae3c 72bb 3d3d 5432 ce3c
00000120: 3028 42bc b9ed 913d d1bc b43d 872d ccbd
00000130: d3c7 9dbd 0008 bcb9 e838 b9bc 0005 c93b
00000140: 86e6 0cbd 8e5a 313d cc9e b4bc d62d 323d
00000150: 2fb7 c43d 526c 0b3d b87a 87bc 4378 7ebd
00000160: d6b1 96bd 8a36 18bd 1498 ca3c 2c74 c8bc
00000170: eceb 80bd f00b 143c f343 20bd b165 843d
00000180: c9dc c13d b6b7 a3bd 69dd 883d ddd4 59bd
00000190: 4002 323b bd4f 803d e0b9 b43b 00a2 c6ba
000001a0: f426 ba3c 6ab5 42bd 560a 04bd 3a32 513d
000001b0: 306d f13b 5d96 c83d d80c 3fbc 5b01 a53d
000001c0: b045 3a3c 08b3 8cbc 68b9 6a3c 8122 9d3d
000001d0: c216 a1bd c00b fbbc c5de ac3d fb33 853d
000001e0: 203d ffbb e165 9e3d d494 f2bc e9a5 923d
000001f0: cc18 0bbd 5973 a33d a80e 483c 1816 7d3c
00000200: 6cae 0cbd bd53 b6bd ea72 98bd d4b3 fd3c
00000210: 92fa 213d 9271 333d 9f3e ac3d 186c 903c
00000220: ac96 fb3c 98b9 d8bc 50d0 0abc d332 b3bd
00000230: 98c7 be3c dd7b 23bd eb6d a7bd 00eb fcbb
00000240: 40d6 38bc 7aef 09bd 13d8 b93d 183e edbc
00000250: 0045 16bb ca1a 80bd 9dfd 2dbd 00d2 e0bb
00000260: 26e8 4b3d 0099 c7bd 467a 563d a31c 91bd
00000270: 1e19 a4bd efc4 9a3d 189f ab3c 8c08 eebc
00000280: 2d95 7dbd 60ff e6bc 8073 c73a 80ad 8aba
00000290: f1d9 903d 88c1 e7bc 3c1b f13c 1d66 863d
000002a0: 5be3 963d 46de 10bd f93b 823d 5012 d6bb
000002b0: 018f b43d b23a 173d 6066 c33b ad9e cb3d
000002c0: 0bac 8b3d 3044 5cbc b4ea b2bc 12e1 6e3d
000002d0: 680e 8abd 1db3 c3bd c67d 12bd fa2a 95bd
000002e0: 51bb b33d 9abf 293d 3a06 43bd 2af2 463d
000002f0: 522e 0d3d 30fb 04bd 23b2 c7bd 5ec1 98bd
00000300: 3535 c4bd 80f1 853a f339 3ebd 34a6 f5bc
00000310: 0c96 833c 7576 b13d f9a4 b53d 5ee7 93bd
00000320: b040 0dbc 6cb7 d8bc 41a8 823d 6a24 1d3d
00000330: 5617 0b3d 309d 9cbd dd9b 67bd d802 a03c
00000340: c026 703c 1435 9a3c b893 a8bc e454 e43c
00000350: cd4a 75bd 807a 003c 6843 28bc 3fdb c23d
00000360: 8018 abbb 4e5d 2b3d 85fe a2bd 681c 313c
00000370: 6db5 9d3d aff3 c4bd fa40 72bd 6401 f13c
00000380: 68af ae3c 41c0 c03d f04b 67bd a803 f3bc
00000390: 7eee 133d 425a b2bd 25ae a63d 81e8 9d3d
000003a0: 064f 113d 00ca 1c3c ec38 b13c 4041 d73a
000003b0: 98ce a43c 57f3 7dbd 41c6 823d 0045 253a
000003c0: ef21 bd3d e80a c0bc c86f 82bc 994b 9b3d
000003d0: 9438 a5bc 182c 533c 516f 993d 9b91 8dbd
000003e0: f421 8bbd e23c 133d 2e9d 033d b169 b23d
000003f0: 609c ecbb 8d9f 79bd b06d 13bc f0d4 57bc

linear_in_h.0.weight f4 [200, 6]
0.22502482 -0.022289276 0.009173304 -0.191147 0.22639793 -0.36026406 -0.025268525 0.2639178
0.1039328 -0.29500347 -0.3433799 0.25404882 0.068686366 -0.09252149 0.3137082 -0.25640535
0.32124108 -0.03287363 -0.26254106 0.10265535 0.03242463 -0.37103528 -0.23697919 -0.19773063
-0.24753404 0.39408457 0.35099167 0.12870353 -0.15776616 0.006647855 -0.30593848 0.13931406
-0.18887566 -0.14312714 -0.041156024 -0.2706365 -0.39485514 -0.17992502 0.32034665 0.08641729
-0.36136934 -0.08089486 -0.2327692 0.120925605 0.1693576 -0.18903174 0.24209285 0.36443937
-0.23865417 -0.2931954 -0.39785245 -0.3209019 -0.027569473 -0.31973696 0.17382729 0.10216731
-0.04375592 0.10879755 0.3780349 -0.016278714 -0.3531218 0.33080137 -0.19742087 -0.04596567
0.28331965 0.19272709 -0.046580553 0.21120954 0.05792296 0.17918158 -0.3814365 -0.15338054
-0.34965822 -0.2331161 0.18701977 -0.24855532 -0.08925283 0.3408684 -0.107060134 -0.3255148
-0.2728551 0.32719696 -0.34411657 0.3236519 -0.27340978 0.3471465 0.39821547 0.041713297
0.2673813 0.36415744 -0.06803772 -0.09832969 -0.04056555 0.007090211 -0.24748021 -0.018323302
0.20089322 -0.39845315 -0.14601386 -0.12253228 -0.06148073 -0.19575158 -0.026824892 -0.16927387
-0.1731154 -0.112024754 0.39005792 -0.1106976 0.3141079 0.085187286 -0.2622112 0.34263796
-0.29755747 0.11449987 0.14344949 -0.14778253 0.13717991 -0.07373351 0.16753823 -0.0022981465
-0.09444782 0.19808573 -0.08268127 -0.08842519 -0.10982159 -0.25022042 0.33532137 -0.07385236
0.33788455 0.115021825 0.088852406 0.34200346 -0.40320134 -0.031006664 -0.33884692 -0.12702659
0.3399036 0.10812926 0.11436361 0.15382671 -0.119454145 0.051140785 0.15906268 0.37145567
0.17019409 0.16754812 -0.23952857 0.38749868 0.29785657 0.3860734 -0.3807187 0.34311956
0.1947037 -0.004192084 0.07855451 0.1876241 0.18949872 -0.36786902 0.27490145 0.25008357
0.33501536 -0.23718365 0.30067158 0.3520884 0.11948621 0.015672624 0.24755496 -0.2920213
-0.06637943 0.17985249 -0.116502315 -0.37511873 0.3858679 -0.31620982 0.15199715 0.27434742
-0.075285256 -0.16643833 0.3822661 -0.005542189 -0.12689087 -0.069515646 -0.053186893 -0.039477795
-0.1851266 0.30646962 0.09182948 -0.33987328 0.09774625 0.07267392 -0.23343648 0.2965666
0.047070175 0.28300327 -0.27920133 -0.13300148 0.008510739 -0.19542901 -0.06674752 -0.09753302
0.06535983 0.4064632 -0.36681756 0.10696739 -0.31875795 -0.26121348 0.049390912 0.040792376
0.12712353 0.3655489 -0.22396281 0.33376718 -0.19911622 0.05335167 0.07632771 -0.28338978
0.40422165 0.09971696 0.40381187 0.09406823 -0.11140701 0.19779837 -0.3465316 0.3355134
0.2830106 0.36308867 -0.010847688 -0.07783243 0.21243125 -0.23245837 -0.39787483 -0.018757045
0.21377647 0.2545426 0.03490621 0.14632726 -0.05220723 -0.25902826 -0.21178293 -0.3925373
0.05878803 0.23329967 0.14714617 0.2653051 -0.2797016 -0.13241875 0.2246818 0.3732124
-0.12697577 0.1907835 -0.17045473 0.17208183 -0.34766573 0.34985578 0.40644723 -0.28481722
00000000: e86c 663e 0098 b6bc a04b 163c 0abc 43be
00000010: dcd4 673e 8874 b8be f0ff cebc 3c20 873e
00000020: b8da d43d b20a 97be 7ecf afbe b012 823e
00000030: 70ab 8c3d e87b bdbd 5c9e a03e 9047 83be
00000040: b679 a43e 80a6 06bd c86b 86be f83c d23d
00000050: b0cf 043d 56f8 bdbe acaa 72be e679 4abe
00000060: 9079 7dbe 74c5 c93e 2eb5 b33e dcca 033e
00000070: 748d 21be 40d6 d93b f8a3 9cbe 58a8 0e3e
00000080: 9f68 41be ec8f 12be 3893 28bd de90 8abe
00000090: 742a cabe 443e 38be 7a04 a43e 8cfb b03d
000000a0: 6705 b9be 34ac a5bd 0d5b 6ebe d8a7 f73d
000000b0: 146c 2d3e 8991 41be 30e7 773e cc97 ba3e
000000c0: c261 74be b51d 96be 51b3 cbbe 414d a4be
000000d0: 60d9 e1bc 90b4 a3be c8ff 313e 183d d13d
000000e0: 6839 33bd 40d1 de3d ca8d c13e f05a 85bc
000000f0: 61cc b4be cc5e a93e b228 4abe 8046 3cbd
00000100: 460f 913e 405a 453e 40cb 3ebd 5047 583e
00000110: a040 6d3d 607b 373e a54b c3be ca0f 1dbe
00000120: 6706 b3be fdb5 6ebe 1c82 3f3e 4985 7ebe
00000130: 30ca b6bd 4e86 ae3e 5842 dbbd e0a9 a6be
00000140: aab3 8bbe 5c86 a73e 0c30 b0be b4b5 a53e
00000150: 5efc 8bbe 30bd b13e e6e2 cb3e 90db 2a3d
00000160: 34e6 883e d872 ba3e 5c57 8bbd 1461 c9bd
00000170: 1028 26bd 0055 e83b 746b 7dbe c01a 96bc
00000180: f4b6 4d3e 0d02 ccbe a884 15be 34f2 fabd
00000190: 38d3 7bbd 1a73 48be e0bf dbbc 2156 2dbe
000001a0: 2a45 31be 3c6d e5bd acb5 c73e 6cb5 e2bd
000001b0: c0d2 a03e ac76 ae3d 8c40 86be 3e6e af3e
000001c0: 7459 98be e87e ea3d 6ce4 123e 4e54 17be
000001d0: e478 0c3e 9801 97bd 248f 2b3e 809c 16bb
000001e0: dc6d c1bd fcd6 4a3e cc54 a9bd 4418 b5bd
000001f0: 24ea e0bd e41c 80be 3eaf ab3e e83f 97bd
00000200: 34ff ac3e 9090 eb3d 40f8 b53d 141b af3e
00000210: 6870 cebe b001 febc 587d adbe 4213 02be
00000220: d807 ae3e e072 dd3d 7837 ea3d c084 1d3e
00000230: 60a4 f4bd 0079 513d 54e1 223e 702f be3e
00000240: 5c47 2e3e bc91 2b3e fa46 75be 3a66 c63e
00000250: a880 983e 6aab c53e 90ed c2be 5ead af3e
00000260: 6860 473e c05d 89bb 30e1 a03d 8820 403e
00000270: f40b 423e 5459 bcbe e2bf 8c3e f40a 803e
00000280: 2287 ab3e 45e0 72be a0f1 993e ee44 b43e
00000290: 30b5 f43d e063 803c 0c7f 7d3e d183 95be
000002a0: f0f1 87bd 402b 383e c498 eebd 900f c0be
000002b0: 7a90 c53e 41e6 a1be 24a5 1b3e 4477 8c3e
000002c0: 282f 9abd cf6e 2abe 62b8 c33e 409b b5bb
000002d0: aeef 01be 385e 8ebd 80da 59bd 78b3 21bd
000002e0: d491 3dbe 96e9 9c3e 1811 bc3d df03 aebe
000002f0: 302f c83d 10d6 943d f909 6fbe 94d7 973e
00000300: a8cc 403d cee5 903e 7af3 8ebe 8a31 08be
00000310: a070 0b3c 8b1e 48be ecb2 88bd 64bf c7bd
00000320: 60db 853d f21b d03e 83cf bbbe b811 db3d
00000330: 3e34 a3be c6bd 85be 204e 4a3d e815 273d
00000340: ac2c 023e 3a29 bb3e 8256 65be 88e3 aa3e
00000350: 1fe5 4bbe 4887 5a3d b451 9c3d 7718 91be
00000360: 24f6 ce3e 6838 cc3d 6ec0 ce3e d8a6 c03d
00000370: 5c29 e4bd a88b 4a3e 976c b1be 6ac8 ab3e
00000380: c4e6 903e c2e6 b93e 80ba 31bc 9c66 9fbd
00000390: 9487 593e 9109 6ebe 40b6 cbbe 60a8 99bc
000003a0: 38e8 5a3e 6853 823e d0f9 0e3d d0d6 153e
000003b0: 40d7 55bd 5a9f 84be a0dd 58be a6fa c8be
000003c0: b8cb 703d 1ce6 6e3e 7cad 163e 12d6 873e
000003d0: 0c35 8fbe c898 07be fc12 663e b215 bf3e
000003e0: f005 02be c05c 433e af8b 2ebe 3836 303e
000003f0: 3e01 b2be 4c20 b33e da19 d03e 90d3 91be

linear_in_h.0.bias f4 [200]
0.053148836 0.31356198 -0.058394343 -0.13492826 0.40077472 0.0546062 -0.015415996 0.31061393
-0.31727338 -0.034053564 -0.25411415 -0.35028768 -0.054064125 0.19738191 0.123970985 -0.3902586
-0.39861023 0.1798281 -0.40415102 -0.14504042 -0.2874347 -0.3893348 -0.30048314 0.20017147
0.38297486 0.22505993 -0.06866056 -0.04016593 0.010189056 0.36707348 0.35497218 0.3867746
0.08593997 -0.2690321 0.050833195 0.13871497 0.001025945 0.25274426 0.22350097 -0.34384012
-0.3912099 -0.008520961 -0.18610759 -0.40030974 0.11786085 -0.25793314 0.09899086 -0.20977347
0.12916869 -0.32789677 -0.22197278 -0.13622946 -0.3166509 0.3175239 0.1071915 -0.13217121
-0.25193757 0.15303999 0.35280442 -0.042259306 0.13113284 0.10736084 -0.207824 0.18702245
0.081637025 -0.17539077 0.257344 0.28737098 -0.3704031 0.19881958 0.06756258 -0.013825744
0.27471715 -0.19931532 0.1608311 -0.082535565 0.06179619 0.24928546 0.22902888 -0.3802575
-0.24402368 -0.18185331 0.18149894 0.02926454 -0.07046801 -0.17855933 0.052294523 -0.054245293
0.24242038 -0.15128455 -0.3339165 -0.045203894 0.23540294 0.36427563 -0.37492582 -0.2588343
-0.29687005 -0.37199968 -0.21455875 -0.35835356 -0.18956733 -0.20658252 -0.3779699 -0.16214985
-0.30435756 -0.3599181 0.2915486 -0.35985327 -0.34932902 -0.34647718 0.10221481 0.18750858
-0.27760762 0.05861327 0.39842498 0.24630177 0.3061685 -0.18493894 -0.36252192 0.11546773
0.38763577 -0.277524 -0.24213293 -0.385346 -0.11599046 0.14933783 -0.10551533 -0.32650077
-0.18664292 0.39732617 -0.03538859 -0.04192388 -0.27264273 -0.28248614 0.19812185 -0.25718918
-0.26626673 0.17398179 0.23095495 -0.30666322 0.050049216 0.12429029 -0.3394654 -0.28491807
0.3099591 0.21592969 0.36054993 0.36984968 0.24628371 -0.31289634 -0.003633678 0.23789084
0.21931964 0.26462293 0.08440977 -0.2152506 0.340914 0.012547672 0.035119176 -0.055541724
-0.34058157 -0.20875905 0.36684775 -0.04980725 -0.0008675456 -0.30557513 -0.35673618 -0.13637385
-0.078258455 0.04797077 0.34933197 -0.29125696 0.047442198 -0.07575086 0.1749531 -0.24108979
0.21578574 -0.17311914 -0.06362566 0.2193318 0.23441231 0.16910511 -0.029105306 0.25096387
-0.25403842 -0.37208313 0.36844188 -0.2719476 0.17818213 0.18758446 -0.3980865 0.14973313
0.31494683 -0.020608515 0.26321244 -0.005779892 -0.13410866 0.2521131 -0.0066414773 -0.2869777
00000000: 98b2 593d 328b a03e e82e 6fbd a22a 0abe
00000010: 5832 cd3e c0aa 5f3d 6093 7cbc ca08 9f3e
00000020: a871 a2be c07b 0bbd 401b 82be e858 b3be
00000030: 5872 5dbd 7c1e 4a3e 80e4 fd3d facf c7be
00000040: a416 ccbe dc24 383e e2ec cebe 7a85 14be
00000050: a42a 93be e456 c7be edd8 99be c0f9 4c3e
00000060: 4815 c43e 1c76 663e e89d 8cbd 0885 24bd
00000070: 00f0 263c 0ef1 bb3e eabe b53e 5207 c63e
00000080: 4c01 b03d 93be 89be 7836 503d 4c0b 0e3e
00000090: 0079 863a b267 813e 70dd 643e d00b b0be
000000a0: aa4c c8be 809b 0bbc fd92 3ebe 66f5 ccbe
000000b0: 0861 f13d d00f 84be b8bb ca3d dbce 56be
000000c0: cc44 043e 16e2 a7be d54c 63be bc7f 0bbe
000000d0: 1120 a2be 7e92 a23e 3887 db3d e457 07be
000000e0: f6fd 80be 84b6 1c3e c8a2 b43e 1818 2dbd
000000f0: b047 063e 00e0 db3d d1cf 54be d082 3f3e
00000100: 5031 a73d a399 33be 98c2 833e 4a22 933e
00000110: 7aa5 bdbe 5c97 4b3e 405e 8a3d 6085 62bc
00000120: baa7 8c3e 5119 4cbe e8b0 243e 6808 a9bd
00000130: 001e 7d3d b044 7f3e 8c86 6a3e 1cb1 c2be
00000140: 58e1 79be c137 3abe dcda 393e 30bc ef3c
00000150: 8851 90bd 42d8 36be c832 563d 5030 5ebd
00000160: 0c3d 783e 56ea 1abe 1af7 aabe b827 39bd
00000170: 780d 713e 5682 ba3e 47f6 bfbe ee85 84be
00000180: 5aff 97be be76 bebe 4ab5 5bbe 1e7a b7be
00000190: f01d 42be 5e8a 53be 4585 c1be 9c0a 26be
000001a0: c1d4 9bbe 2f47 b8be dc45 953e b03e b8be
000001b0: 41db b2be 7565 b1be 0056 d13d 4002 403e
000001c0: 9622 8ebe 7814 703d 5cfe cb3e 8836 7c3e
000001d0: 1ec2 9c3e a260 3dbe 799c b9be 587a ec3d
000001e0: 3278 c63e a017 8ebe b2f1 77be 124c c5be
000001f0: 688c edbd 04ec 183e 6c18 d8bd 1c2b a7be
00000200: 521f 3fbe 566e cb3e a0f3 10bd 60b8 2bbd
00000210: d497 8bbe 06a2 90be 74e0 4a3e 4dae 83be
00000220: 1d54 88be 4828 323e 747f 6c3e f602 9dbe
00000230: 6800 4d3d e88b fe3d 69ce adbe c8e0 91be
00000240: f6b2 9e3e ac1c 5d3e 009a b83e f05c bd3e
00000250: cc31 7c3e f333 a0be 0023 6ebb a899 733e
00000260: 5495 603e a87c 873e 08df ac3d a76a 5cbe
00000270: 488c ae3e c094 4d3c 20d9 0f3d b87f 63bd
00000280: b560 aebe efc4 55be 78d3 bb3e b002 4cbd
00000290: 006c 63ba 5874 9cbe 20a6 b6be 96a5 0bbe
000002a0: f845 a0bd 007d 443d a4db b23e a21f 95be
000002b0: c052 423d 4423 9bbd e826 333e 3ee0 76be
000002c0: f0f6 5c3e 2546 31be 2c4e 82bd 8498 603e
000002d0: c809 703e e429 2d3e 406e eebc 567e 803e
000002e0: 5311 82be ae81 bebe 6aa4 bc3e b73c 8bbe
000002f0: 6075 363e 2416 403e fed1 cbbe a453 193e
00000300: b640 a13e 30d3 a8bc c8c3 863e 4065 bdbb
00000310: c853 09be f814 813e c0a0 d9bb beee 92be

linear_in_h.2.weight f4 [100, 200]
0.061165728 -0.032636724 0.014650874 0.030083463 -0.013270181 0.007387601 -0.021334052 -0.009095948
-0.035767864 0.018391833 0.020116776 -0.060002312 0.052454054 -0.030490674 0.02709873 0.06595077
-0.052436776 0.07046496 -0.025733586 0.021667197 0.037112467 0.063286714 -0.007792756 0.03341859
0.037293732 0.011271313 0.039484166 -0.018112306 -0.018771473 0.005197838 0.037396573 -0.042377453
0.048311673 0.006900996 0.0031096488 0.013188958 0.062510155 -0.018236682 0.048026673 -0.055244043
-0.013766434 0.056577973 -0.04955797 -0.00819958 -0.053913727 -0.052842245 -0.05734866 -0.06374585
-0.01632372 0.0094182715 0.008875437 -0.045919456 0.062468983 0.011985712 0.058021493 0.052077882
-0.0024952143 -0.048955616 -0.028828707 0.036364727 -0.05699291 0.020043626 0.029505245 -0.037473373
0.009257354 0.055865474 -0.07001361 -0.045898028 0.036880635 0.05829159 -0.0063681602 -0.015101232
-0.065285906 0.06763109 -0.059277877 0.04626687 0.03983663 0.042576388 0.05010967 0.014432028
-0.038413025 -0.007134743 0.06341552 0.04327391 -0.043170996 0.0052222535 -0.0076964796 -0.05411638
-0.04737065 -0.06583883 -0.02041874 -0.020624392 0.043258816 -0.05961183 -0.03975607 -0.06888735
-0.0038321912 -0.032151192 -0.05702351 0.034521095 -0.009003941 -0.058886837 -0.0004819557 0.06946535
0.04384365 0.005951375 0.044027828 -0.04342576 0.053668894 0.010031201 0.040174864 -0.002040431
0.015607104 -0.057598427 -0.061352868 -0.069601 -0.039107785 0.009170353 0.046092637 0.030539148
-0.023385365 0.029604085 -0.06275508 0.059403412 -0.00035176426 0.016738877 0.012672856 0.026768036
0.021866366 0.048438683 0.050144702 0.012011774 0.0062511265 -0.023660492 -0.038560312 -0.07070547
0.054312564 -0.04428844 -0.014545687 0.0667387 -0.056414638 -0.035116553 0.06011214 -0.011161186
-0.0053664967 0.05699434 -0.027626492 -0.017717205 0.014688909 -0.050989106 0.027314506 0.028815463
0.019884266 0.06664971 -0.033538237 0.019152172 -0.019890659 -0.067688555 -0.008776709 0.03160923
-0.019117441 -0.007545233 0.007914975 -0.0072435215 -0.00052414834 0.066949986 -0.027634207 0.056014515
0.018213198 -0.007110767 -0.049023733 0.034054883 -0.006061569 -0.01669988 0.013590947 0.02040527
0.01845222 0.0377917 0.06874909 -0.04008051 -0.033201367 -0.05313675 -0.020304777 0.0033345968
0.032657765 -0.043899823 -0.020079948 0.056137033 0.060734577 -0.057178643 -0.030693445 -0.032319307
-0.030106742 0.03523393 0.017513499 0.031205587 0.046623066 0.054190487 -0.049835093 0.067586266
-0.034840576 0.04831595 0.06503881 0.055532478 -0.0022826418 0.069759436 -0.04316344 0.0008686334
-0.027820714 0.06224651 0.022529967 0.028280713 0.03134942 0.023254126 -0.046265498 -0.03379315
-0.02225728 0.024560824 0.054052062 -0.026686188 -0.046565678 -0.067308664 -0.043868642 0.021148182
0.019598693 0.035696127 0.026323453 0.04094436 0.030427888 -0.010172598 -0.052693248 0.036171712
0.009726763 -0.018554326 -0.032447375 -0.06559037 -0.054773744 0.022462375 -0.002266027 0.017567076
-0.06549501 0.039174445 0.053694688 -0.023970615 0.050789073 -0.011839099 0.009666689 -0.054951884
-0.036025003 0.039727643 0.04140967 0.019186787 -0.013032902 -0.016089331 0.04681959 -0.059254073
00000000: ea88 7a3d 16ae 05bd 380a 703c 9871 f63c
00000010: 2c6b 59bc b013 f23b c0c4 aebc 2c07 15bc
00000020: 5381 12bd 78aa 963c f0cb a43c fcc4 75bd
00000030: 10da 563d 94c7 f9bc 28fe dd3c 3311 873d
00000040: f2c7 56bd ef4f 903d 3ecf d2bc 687f b13c
00000050: 3e03 183d 779c 813d 605a ffbb eee1 083d
00000060: 50c1 183d 50ab 383c 26ba 213d 4260 94bc
00000070: a2c6 99bc a052 aa3b 262d 193d fb93 2dbd
00000080: 76e2 453d c021 e23b 40cb 4b3b 8016 583c
00000090: 5305 803d 1865 95bc 9eb7 443d 9447 62bd
000000a0: 9c8c 61bc 4ebe 673d 4cfd 4abd 8857 06bc
000000b0: a4d4 5cbd 1c71 58bd 6ee6 6abd 2f8d 82bd
000000c0: 52b9 85bc 184f 1a3c 486a 113c 0a16 3cbd
000000d0: 7adf 7f3d b85f 443c f2a7 6d3d 9e4f 553d
000000e0: c086 23bb af85 48bd 2e2a ecbc 2ef3 143d
000000f0: 6671 69bd 8832 a43c fcb4 f13c ae7d 19bd
00000100: 28ac 173c 32d3 643d 4c63 8fbd 92ff 3bbd
00000110: 2610 173d 2ac3 6e3d 00ac d0bb 286b 77bc
00000120: 9eb4 85bd 2b82 8a3d 5ccd 72bd 5482 3d3d
00000130: bc2b 233d 9464 2e3d cc3f 4d3d 5074 6c3c
00000140: fa56 1dbd 90ca e9bb ffdf 813d fc3f 313d
00000150: 12d4 30bd 701f ab3b c032 fcbb 23a9 5dbd
00000160: ba07 42bd 82d6 86bd 3445 a7bc 7cf4 a8bc
00000170: 2830 313d 892b 74bd 43d7 22bd d014 8dbd
00000180: 8025 7bbb f8b0 03bd 7c91 69bd fe65 0d3d
00000190: 4485 13bc 5333 71bd 00af fcb9 d943 8e3d
000001a0: 6695 333d c003 c33b 8656 343d 36df 31bd
000001b0: ead3 5b3d e859 243c 668e 243d c0b8 05bb
000001c0: f0b4 7f3c 54ec 6bbd 254d 7bbd f88a 8ebd
000001d0: 7c2f 20bd 403f 163c a2cb 3c3d 3c2d fa3c
000001e0: aa92 bfbc 4484 f23c bc85 80bd fe50 733d
000001f0: 006d b8b9 f81f 893c d0a1 4f3c a448 db3c
00000200: 1821 b33c a467 463d 8864 4d3d 08cd 443c
00000210: 40d6 cc3b a6d3 c1bc 6bf1 1dbd 08ce 90bd
00000220: da76 5e3d cc67 35bd 0851 6ebc 4dae 883d
00000230: 0913 67bd 60d6 0fbd 2638 763d 68dd 36bc
00000240: 70d9 afbb e672 693d f450 e2bc ac23 91bc
00000250: c0a9 703c f4d9 50bd acc2 df3c 680e ec3c
00000260: 54e4 a23c a57f 883d 645f 09bd 04e5 9c3c
00000270: bcf1 a2bc 4ca0 8abd 30cc 0fbc ae78 013d
00000280: 2e9c 9cbc 003e f7bb d0ad 013c 105b edbb
00000290: 0067 09ba 131d 893d 2261 e2bc 7a6f 653d
000002a0: d833 953c 7001 e9bb 1ccd 48bd 227d 0b3d
000002b0: 20a0 c6bb 30ce 88bc 90ac 5e3c f428 a73c
000002c0: 1c29 973c 78cb 1a3d 53cc 8c3d 762b 24bd
000002d0: 28fe 07bd eca5 59bd 3456 a6bc 4089 5a3b
000002e0: 26c4 053d 4dd0 33bd b47e a4bc f2ef 653d
000002f0: d2c4 783d 2734 6abd d270 fbbc 4061 04bd
00000300: 6aa2 f6bc 7451 103d 7878 8f3c dca2 ff3c
00000310: d4f7 3e3d d8f6 5d3d e21f 4cbd ab6a 8a3d
00000320: feb4 0ebd f2e6 453d 1133 853d 0676 633d
00000330: 6098 15bb 09de 8e3d 26cc 30bd 00b5 633a
00000340: 44e8 e3bc 32f6 7e3d c490 b83c f4ac e73c
00000350: 4068 003d 707f be3c e480 3dbd b06a 0abd
00000360: e654 b6bc c833 c93c b265 5d3d fe9c dabc
00000370: a7bb 3ebd 20d9 89bd 9baf 33bd f43e ad3c
00000380: 708d a03c 1a36 123d 48a4 d73c 46b5 273d
00000390: e843 f93c f8aa 26bc e0d4 57bd ca28 143d
000003a0: 005d 1f3c 3eff 97bc 8ae7 04bd 3e54 86bd
000003b0: 6f5a 60bd 0403 b83c a081 14bb d4e8 8f3c
000003c0: 3f22 86bd 6275 203d f6ee 5b3d 065e c4bc
000003d0: 3408 503d c8f8 41bc 0861 1e3c 3a15 61bd
000003e0: f48e 13bd 74b9 223d 309d 293d 9c2d 9d3c
000003f0: f487 55bc c6cd 83bc e6c5 3f3d 66b4 72bd

linear_in_h.2.bias f4 [100]
0.033982188 -0.042565294 -0.067639425 -0.013450339 -0.018726014 -0.0010606647 0.06632515 0.008959353
-0.062532 0.04520271 -0.04939144 -0.021457989 -0.07027517 -0.021183953 0.06257529 0.005694464
0.011938579 -0.011213876 0.046638794 -0.057589363 0.058813475 -0.064920545 -0.026542485 -0.01339823
-0.055995688 0.028185233 -0.01880262 -0.05782811 -0.03866398 -0.053634144 0.06839188 0.05494476
0.052005716 -0.06974066 6.4998865e-05 0.034196734 -0.01166039 0.0056836456 0.06611512 -0.033188857
-0.013596483 0.018977344 -0.0680087 0.012014464 0.037653536 -0.054129116 -0.04205376 0.06128668
-0.04564009 0.0052689463 0.05695299 -0.008421622 0.062178113 -0.0024803355 0.018163681 -0.03250812
-0.028272934 -0.007888995 -0.029369611 0.02247873 0.037407346 0.046679035 -0.04371055 0.03137371
0.053218365 -0.05426366 0.054891266 0.013087779 0.01522769 0.06277055 -0.0028716624 -0.056857105
-0.0017530695 -0.01215028 -0.006374061 0.04506752 -0.023335911 -0.03481437 -0.009779099 0.0043177456
-0.048564862 -0.002931185 0.06587336 -0.023736373 0.060097046 0.05631601 0.030477837 0.05019363
-0.051180318 -0.030055266 0.06962917 0.05494734 -0.039557938 0.04052358 -0.064574316 0.047893994
-0.021955844 -0.017964318 0.013214253 0.026774175
00000000: e830 0b3d f258 2ebd 8a86 8abd d05e 5cbc
00000010: 4c67 99bc 0006 8bba 7bd5 873d 40ca 123c
00000020: c710 80bd 7a26 393d ae4e 4abd aac8 afbc
00000030: 6eec 8fbd f889 adbc 7927 803d a098 ba3b
00000040: 089a 433c 68ba 37bc 5208 3f3d d3e2 6bbd
00000050: 66e6 703d 10f5 84bd a06f d9bc 4084 5bbc
00000060: bc5b 65bd b8e4 e63c f407 9abc 2bdd 6cbd
00000070: 1f5e 1ebd 7aaf 5bbd 0b11 8c3d c20d 613d
00000080: f203 553d 31d4 8ebd 0050 8838 e011 0c3d
00000090: 380b 3fbc e03d ba3b 5d67 873d 0af1 07bd
000000a0: c8c3 5ebc 6076 9b3c 2548 8bbd 50d8 443c
000000b0: 983a 1a3d 7eb6 5dbd 9040 2cbd be07 7b3d
000000c0: 1af1 3abd 20a7 ac3b 8a47 693d d8fa 09bc
000000d0: 7aae 7e3d 208d 22bb 00cc 943c 3c27 05bd
000000e0: a49c e7bc d840 01bc 8a98 f0bc 5025 b83c
000000f0: 7238 193d 8432 3f3d d509 33bd b881 003d
00000100: 80fb 593d 9243 5ebd aad5 603d 206e 563c
00000110: 907d 793c d98d 803d 8032 3cbb ffe2 68bd
00000120: 40c7 e5ba f811 47bc 80dd d0bb b898 383d
00000130: f42a bfbc 8399 0ebd 8438 20bc e07b 8d3b
00000140: f3eb 46bd 2019 40bb 9de8 863d c872 c2bc
00000150: 5228 763d 9eab 663d a8ac f93c d697 4d3d
00000160: 74a2 51bd 7636 f6bc bd99 8e3d 7610 613d
00000170: 8107 22bd 0efc 253d 8a3f 84bd 7e2c 443d
00000180: bedc b3bc e829 93bc 9880 583c 8455 db3c
